{"format": "layers-model", "generatedBy": "keras v2.7.0", "convertedBy": "TensorFlow.js Converter v3.11.0", "modelTopology": {"keras_version": "2.7.0", "backend": "tensorflow", "model_config": {"class_name": "Model", "config": {"name": "model_3", "layers": [{"class_name": "InputLayer", "config": {"batch_input_shape": [null], "dtype": "float32", "sparse": false, "ragged": false, "name": "audio"}, "name": "audio", "inbound_nodes": []}, {"class_name": "KerasLayer", "config": {"name": "yamnet", "trainable": false, "dtype": "float32", "handle": "https://tfhub.dev/google/yamnet/1"}, "name": "yamnet", "inbound_nodes": [[["audio", 0, 0, {}]]]}, {"class_name": "Sequential", "config": {"name": "my_model", "layers": [{"class_name": "InputLayer", "config": {"batch_input_shape": [null, 1024], "dtype": "float32", "sparse": false, "ragged": false, "name": "input_embedding"}}, {"class_name": "Dense", "config": {"name": "dense", "trainable": true, "dtype": "float32", "units": 512, "activation": "relu", "use_bias": true, "kernel_initializer": {"class_name": "GlorotUniform", "config": {"seed": null}}, "bias_initializer": {"class_name": "Zeros", "config": {}}, "kernel_regularizer": null, "bias_regularizer": null, "activity_regularizer": null, "kernel_constraint": null, "bias_constraint": null}}, {"class_name": "Dense", "config": {"name": "dense_1", "trainable": true, "dtype": "float32", "units": 10, "activation": "linear", "use_bias": true, "kernel_initializer": {"class_name": "GlorotUniform", "config": {"seed": null}}, "bias_initializer": {"class_name": "Zeros", "config": {}}, "kernel_regularizer": null, "bias_regularizer": null, "activity_regularizer": null, "kernel_constraint": null, "bias_constraint": null}}]}, "name": "my_model", "inbound_nodes": [[["yamnet", 0, 1, {}]]]}, {"class_name": "ReduceMeanLayer", "config": {"name": "classifier", "trainable": true, "dtype": "float32", "axis": 0}, "name": "classifier", "inbound_nodes": [[["my_model", 1, 0, {}]]]}], "input_layers": [["audio", 0, 0]], "output_layers": [["classifier", 0, 0]]}}}, "weightsManifest": [{"paths": ["group1-shard1of1.bin"], "weights": [{"name": "dense/kernel", "shape": [1024, 512], "dtype": "float32"}, {"name": "dense/bias", "shape": [512], "dtype": "float32"}, {"name": "dense_1/kernel", "shape": [512, 10], "dtype": "float32"}, {"name": "dense_1/bias", "shape": [10], "dtype": "float32"}]}]}